.dart_tool/chrome-device/Default/optimization_guide_prediction_model_downloads/b72b85f2-70d3-413d-9323-8befb3845cc3/model.tflite (tflite, 498468 bytes, 160 tensors)

context_transformer_0/bottleneck_input/norm/add;StatefulPartitionedCall/context_transformer_0/bottleneck_input/norm/add;context_transformer_0/bottleneck_input/dense/einsum/Einsum;StatefulPartitionedCall/context_transformer_0/bottleneck_input/dense/einsum/Einsum;context_transformer_0/bottleneck_input/norm/mul;StatefulPartitionedCall/context_transformer_0/bottleneck_input/norm/mul;context_transformer_0/bottleneck_input/dense/add;StatefulPartitionedCall/context_transformer_0/bottleneck_input/dense/add;12614;12616;12618 f4 [32]
00000000: a1fa 743c df4b 39bd 001d adbc 087d e4bc
00000010: b0a4 0fbe 9c55 a9bd 1991 3d3d 1cd0 f6bd
00000020: a7b1 fcbd 3a90 eebc 7efd 7a3c 1cba 3abd
00000030: c384 733d 1fa6 863d 2006 4abd 8ed9 49bd
00000040: 9acc 4bbd 182c 05bd 080b 84bc d560 2c3d
00000050: 5c54 02bd 8035 623d 5ea0 2d3d d015 ab3d
00000060: 3ae8 7a3d e00b d03c 8833 bf3c ba07 81bc
00000070: b59a 0d3b 32a2 423c 0aae ec3d 28aa 77b8
0.014952333 -0.045238372 -0.021131992 -0.02789165 -0.14027667 -0.08268282 0.046280954 -0.120514125
-0.12338572 -0.029121507 0.015319226 -0.045587644 0.059452783 0.06574654 -0.049322248 -0.049279742
-0.04975567 -0.032512754 -0.016118541 0.042084534 -0.031818733 0.055226803 0.042389266 0.0835377
0.061256625 0.025396287 0.023340002 -0.015750755 0.0021607105 0.011879491 0.11556633 -5.904786e-05

context_transformer_1/bottleneck_input/norm/add;StatefulPartitionedCall/context_transformer_1/bottleneck_input/norm/add;context_transformer_0/bottleneck_input/dense/einsum/Einsum;StatefulPartitionedCall/context_transformer_0/bottleneck_input/dense/einsum/Einsum;context_transformer_1/bottleneck_input/norm/mul;StatefulPartitionedCall/context_transformer_1/bottleneck_input/norm/mul;context_transformer_1/bottleneck_input/dense/add;StatefulPartitionedCall/context_transformer_1/bottleneck_input/dense/add;context_transformer_1/bottleneck_input/dense/einsum/Einsum;StatefulPartitionedCall/context_transformer_1/bottleneck_input/dense/einsum/Einsum;12706;12708;12710 f4 [32]
00000000: 02e9 26bc 2c2d b0bc 86ed 9e3d 1c3e 733d
00000010: 9845 a73d d2b2 30bd d6be ca3b ccfc 12bc
00000020: 9ed7 26bd c26c 323d f2ee 1e3c fb49 b8bd
00000030: 8f04 223e 0eb4 bcbc 50e0 a0bc e695 913e
00000040: 3743 c3bd 82cd fb3b 502a f1bd 2953 63bc
00000050: 04bf 5b3e 28b0 243d ea90 0c3d 3827 4cbb
00000060: 3dc2 c33d 4828 05bd 98d9 0d3b a66f e0bd
00000070: 1e7e 21be 203e 043c ec4a 79bd dfcc a63d
-0.010187389 -0.021505915 0.07760148 0.059385404 0.08167571 -0.043139286 0.0061873 -0.008971404
-0.040732972 0.04356075 0.009700524 -0.08998486 0.15822051 -0.023035076 -0.01963821 0.28434676
-0.095343046 0.0076844105 -0.117756486 -0.013874807 0.21459585 0.04020706 0.03431789 -0.0031151306
0.095585324 -0.03250912 0.0021644589 -0.10958795 -0.15770766 0.008071452 -0.060862467 0.08144545

mention_transformer_0/bottleneck_input/norm/add;StatefulPartitionedCall/mention_transformer_0/bottleneck_input/norm/add;sequential_1/dense_3/Tensordot/shape;StatefulPartitionedCall/sequential_1/dense_3/Tensordot/shape;mention_transformer_0/bottleneck_input/norm/mul;StatefulPartitionedCall/mention_transformer_0/bottleneck_input/norm/mul;mention_transformer_0/bottleneck_input/dense/add;StatefulPartitionedCall/mention_transformer_0/bottleneck_input/dense/add;mention_transformer_0/bottleneck_input/dense/einsum/Einsum;StatefulPartitionedCall/mention_transformer_0/bottleneck_input/dense/einsum/Einsum;12810;12812;12814 f4 [32]
00000000: 656b e9bc 9092 013e 068d ccbd 44ed 713d
00000010: c14e afbd 5e17 dd3c 7ece b4bd ab0a 70bd
00000020: d86a bcbd f758 e6bd 585e c1bb 1cad b8bc
00000030: 9c27 9e3d fc2b 913d cab1 26be cbe9 8cbd
00000040: 2c14 cfbd b591 163e 14b7 133e 64eb ebbc
00000050: 6a7d 523e e918 383d 92c4 ebbc 9699 e93d
00000060: d064 583a b409 a6bd 20e6 4eb9 038f 48bc
00000070: 9497 00be 21ff 71bc a08a c1bd 3801 973d
-0.028493593 0.12653565 -0.099878356 0.059064165 -0.08559943 0.026988681 -0.08828448 -0.058603924
-0.09200066 -0.112474374 -0.005901139 -0.022543482 0.07722399 0.070884675 -0.16278759 -0.0688053
-0.10111269 0.1470402 0.14425308 -0.028798766 0.20555654 0.04494563 -0.028780255 0.11406247
0.00082547683 -0.081073195 -0.00019731419 -0.012241128 -0.12557822 -0.0147703 -0.09450269 0.07373279

mention_transformer_1/bottleneck_input/norm/add;StatefulPartitionedCall/mention_transformer_1/bottleneck_input/norm/add;sequential_1/dense_3/Tensordot/shape;StatefulPartitionedCall/sequential_1/dense_3/Tensordot/shape;mention_transformer_1/bottleneck_input/norm/mul;StatefulPartitionedCall/mention_transformer_1/bottleneck_input/norm/mul;mention_transformer_1/bottleneck_input/dense/add;StatefulPartitionedCall/mention_transformer_1/bottleneck_input/dense/add;mention_transformer_1/bottleneck_input/dense/einsum/Einsum;StatefulPartitionedCall/mention_transformer_1/bottleneck_input/dense/einsum/Einsum;12902;12904;12906 f4 [32]
00000000: f2cf d7bc 38bd 953d 80f3 e13d 0ab2 4cbe
00000010: 4ae6 9f3d 528e 5f3e a2f8 ecbd 6aeb c23c
00000020: 70e6 06be 52dc 89bc e0c8 993d ca79 42be
00000030: 56f7 4e3d 9aec 8cbe 48f9 233d 7867 bf3e
00000040: 8e1f 40bd 42bb 783d e74f 113d 0ecf b53d
00000050: 31dc d93d 6259 a2be ac0a 5c3e b015 4abc
00000060: f6f4 3cbe 7a1f b1bd a2b3 4e3e c87a 3dbe
00000070: d41d 1cbe 66b4 2b3e ea31 91bd c922 b2be
-0.026344273 0.07311481 0.11032772 -0.19989792 0.07807596 0.21831635 -0.115708604 0.023793895
-0.13173842 -0.01682869 0.07509017 -0.18991771 0.050528847 -0.27524263 0.040032655 0.37383628
-0.046905093 0.060725458 0.03547659 0.08877383 0.10637701 -0.3170882 0.21488446 -0.012334272
-0.1845282 -0.08648582 0.20185712 -0.18503869 -0.15245754 0.16768035 -0.070895985 -0.34792164

context_transformer_0/attention/value/add;StatefulPartitionedCall/context_transformer_0/attention/value/add;context_transformer_0/attention/value/einsum/Einsum;StatefulPartitionedCall/context_transformer_0/attention/value/einsum/Einsum;12638 f4 [32]
00000000: e2a7 4f3c 1693 463e 06c8 3c3d c298 cfbd
00000010: 6b2e 1fbd 7aa2 89bd b6ce 4abd 78b5 82bd
00000020: b70b d0bc ec04 7b3c 1d26 8f3d 0a33 603c
00000030: c238 63bd 8b4e 383d eb56 633c 37ab e93d
00000040: 7b34 40be 7e19 66bd 2595 893d 9d0a 083d
00000050: d4d0 a23d 8689 e0bd 1ef0 5cbd 38d0 dc3d
00000060: ca34 5dbd 6e78 703d 65c8 6cbc 3071 f4bc
00000070: 7784 813c d315 75bc 1ab0 31ba 52e5 52bd
0.012674304 0.19392046 0.046089195 -0.10136558 -0.038862627 -0.06720443 -0.04951354 -0.06382269
-0.025396211 0.015320998 0.069896914 0.013684044 -0.05547405 0.04499678 0.013875703 0.1140961
-0.1877002 -0.056176655 0.067179 0.033213247 0.07949987 -0.109637305 -0.05393993 0.10781902
-0.05400542 0.0587086 -0.014452075 -0.029839128 0.015810234 -0.014958817 -0.00067782553 -0.05148823

context_transformer_0/bottleneck_input/norm/mul;StatefulPartitionedCall/context_transformer_0/bottleneck_input/norm/mul;context_transformer_0/bottleneck_input/dense/einsum/Einsum;StatefulPartitionedCall/context_transformer_0/bottleneck_input/dense/einsum/Einsum;context_transformer_0/bottleneck_input/dense/add;StatefulPartitionedCall/context_transformer_0/bottleneck_input/dense/add;12614;12616 f4 [32, 32]
00000000: f05f fcbd 62b2 1fbf 649a febd 9e46 a7be
00000010: 41bf 2f3f 012e b7be 8fd8 0a3d 7150 883e
00000020: 96ee fcbe 8c53 1f3f 3ce5 7abe f489 bbbe
00000030: c082 033f 8be3 6e3f 694f aebe 8e2a 44be
00000040: 3f4b 333f 1a1f 1fbe 96df 943e 8c5c 2a3c
00000050: a728 a53c 7a47 adbe 6344 153f fb01 65be
00000060: 4c42 81be fcc1 06bf b243 b3bd 008e b03d
00000070: 5cc6 f5bd 0a86 abbe 59a1 77be 4195 063f
00000080: c207 aebe 1664 bcbd 974d 563e 2c1d 2b3d
00000090: a539 033e 926e f2be abdd 8bbe 523c afbe
000000a0: 18fa 87be 7849 a3be 63a8 20be 217b eabd
000000b0: 8ab6 153f d05f a9bd 7ca7 743e 4ec9 b03d
000000c0: 6597 80be e25b 41bb 6e33 25be 4436 73bd
000000d0: 49df e4bd 35d0 77be c873 36bf 023d d33e
000000e0: 1a2f 993b d6a1 afbe 378a aabe 3454 95be
000000f0: d931 133f a4a7 573e 89ad 01be cbb9 763e
00000100: 5c5b 31bd d223 523e d541 e53c 0936 8e3d
00000110: dca3 d2bd 89b6 5ebd b61f 94bd c968 903e
00000120: 79b0 2d3e 6961 b7be d9ac da3c 5cb3 5abd
00000130: 45f6 c03d 6c86 5d3e b429 aabd 154a 083c
00000140: 6739 3a3e b636 6cbd 18dc 333d cace 64bc
00000150: 7419 0ebe bd63 4cbd 6ebe d03d dcc6 fc3d
00000160: 1120 80be 07ff aa3e 55f4 03bf 48e3 7c3e
00000170: 9725 6d3d ac99 dd3d ca8f 80ba 50ca 1e3d
00000180: 65ce 523d f904 3b3e 90f2 f43e d9d5 b4be
00000190: 1c0e 4fbe 5a9c 1cbe 8deb 093e 664c 1a3d
000001a0: 4b95 e33d c4b2 22be a5e2 d9be 02fb 23be
000001b0: 6294 ce3d f48b 023e c5a5 f93e 08cd f73e
000001c0: ff25 b2be fadc d33e 9d09 fdbd b3ac 88be
000001d0: 1ee9 ab3e 5ed9 103e 4638 89be b21e 523d
000001e0: e70e eb3c 7d0a ebbe fc9b 09bf 4e5c 9ebe
000001f0: cd99 913d 92af 48bd d282 1f3e 7304 b33d
00000200: c93c ce3e a31e 653d e52e b4bd 6f25 30bd
00000210: 28ce 1f3e ef6a 91bd 0385 eabb 0500 e33e
00000220: d8d2 e63e 7331 c53e 672a b2bd 2b55 a43e
00000230: d2c1 a33e 1da0 e1bd 904f 553e d02c 58bc
00000240: c394 063e 78e0 283f a6fe 0c3e b254 b43c
00000250: efe7 a33e 4bc9 2cbe 9cce a7be 0f7b 033f
00000260: e895 39be 5924 503e 82e5 b6be 8dee 843e
00000270: 9ae9 cabd cef2 f23d c32f a03e 62b2 fc3c
00000280: eb86 9ebe cb29 d0bd fa1a 80be a5f4 a93e
00000290: ccc8 eebe 9aff 0fbc b91f 3d3e 630b f23d
000002a0: 3fc8 aabe 059e f23d 9cc0 233e f81d 5f3d
000002b0: 89e5 95be 32f0 ab3e af34 333d d1cc edbd
000002c0: 4483 da3d f00e 9a3e ab04 9c3e 5c74 e63d
000002d0: 0be7 0f3e ee83 ac3e 0f9d 1ebe 785b 933e
000002e0: 8b78 6f3e 792f e63e 4403 e03d 7e27 6f3e
000002f0: 2b7e 2b3f d2d8 04bf 89d2 17be fd80 94bd
00000300: db90 75bd 093b d7be 200c a13d 0d57 b23e
00000310: 00a8 41bb bb39 3ebe f966 ef3d 31a0 82be
00000320: 4792 8ebe b87a 55bd 8ddd 523d 680c 363e
00000330: 9e3e 11bd 51d9 4cbe 6463 cabe 4913 90bd
00000340: e4c7 32be 4a14 62bd 53a8 5ebe 4fdb f63e
00000350: 0d26 473e b9d2 a53d 0230 d63c e71e 0bbe
00000360: 36c5 64be dcfc d23d 2e3e b63e e76d 04be
00000370: 62fb a83d 5448 14bd 2252 543d c041 70be
00000380: d1d7 883e 8ed4 803e 6a2b 1c3d 5d82 d23c
00000390: 8a3c 42bc 0d26 233e 6c71 8bbc 9554 8abe
000003a0: b626 f9bd f5b2 a5bd 65c9 2cbe 1d3a 24bd
000003b0: 37a1 7abd cbd7 293d 1439 79be ac75 8bbb
000003c0: 4f6c 4bbe 35cc efbc feb5 86bd b727 4e3d
000003d0: c51a c33d 0d90 f83c 34d7 6f3d 1528 7fbe
000003e0: 7067 e8bd 3b80 9dbe 1a7b ebbc bce8 3f3e
000003f0: f49e a93c 893b 153d 8da4 71bd 4e64 c23e
-0.12322986 -0.62381566 -0.124317914 -0.32671064 0.68651205 -0.35777286 0.033897933 0.26623872
-0.49400777 0.6223686 -0.24501508 -0.36628687 0.51371384 0.93315953 -0.3404496 -0.19156858
0.7003669 -0.15539208 0.29076833 0.010398041 0.020160986 -0.33843595 0.58307475 -0.22364037
-0.25245893 -0.52639747 -0.08753146 0.08620834 -0.12000725 -0.335007 -0.24182643 0.52571493
-0.33990294 -0.091987774 0.20928036 0.041775867 0.12814958 -0.47349983 -0.27317557 -0.34225708
-0.26557994 -0.3189199 -0.15689234 -0.11449266 0.5848166 -0.08270228 0.23892015 0.08632146
-0.25115505 -0.002950423 -0.161329 -0.059377924 -0.11175401 -0.24200518 -0.7127042 0.41257483
0.0046748044 -0.3430316 -0.33308575 -0.29165804 0.57497936 0.21060044 -0.12663855 0.24094312
-0.043300018 0.20521477 0.027985493 0.069439 -0.1028516 -0.054373298 -0.07232611 0.28204945
0.1696185 -0.35816506 0.026693748 -0.053393707 0.09421972 0.21633309 -0.083087355 0.008318444
0.1818596 -0.057669364 0.04391107 -0.013965318 -0.13876897 -0.049899805 0.101925716 0.12342617
-0.25024465 0.33397695 -0.51544696 0.24696076 0.057897177 0.10820326 -0.0009808477 0.03876716
0.051466364 0.18263616 0.4784131 -0.35319403 -0.20220226 -0.15294018 0.13468762 0.037670515
0.1111246 -0.15888506 -0.4255573 -0.1601372 0.100868955 0.127487 0.48759285 0.48398614
-0.34794614 0.4137953 -0.12355349 -0.2669426 0.33576292 0.14145419 -0.26800746 0.051298805
0.02869363 -0.4590644 -0.5375364 -0.30929798 0.07109413 -0.048995562 0.15577248 0.08741083
0.4028075 0.05593742 -0.08798007 -0.04300445 0.15605986 -0.07100474 -0.0071569695 0.44335952
0.45082736 0.3851429 -0.08699494 0.32096228 0.3198381 -0.11016867 0.20831132 -0.013194278
0.13142686 0.6596751 0.13769016 0.022013042 0.3201289 -0.16873662 -0.32774818 0.5135965
-0.18123591 0.20326366 -0.35721976 0.2596325 -0.09907837 0.118627176 0.3128644 0.030846778
-0.3096231 -0.101642214 -0.2502058 0.3319446 -0.4663757 -0.0087889675 0.18469132 0.11818578
-0.333559 0.11846546 0.15991443 0.05447194 -0.29276684 0.33581692 0.043751415 -0.11611331
0.10669568 0.3008952 0.3047231 0.112526625 0.1405298 0.33694404 -0.154896 0.28780723
0.23385827 0.44958094 0.10938123 0.23354909 0.6698939 -0.5189334 -0.14826407 -0.07251165
-0.059952598 -0.42037228 0.07863641 0.3483204 -0.0029549599 -0.1857671 0.11689562 -0.2551284
-0.27845976 -0.052118987 0.05148082 0.1777817 -0.035460107 -0.20004775 -0.39528954 -0.07034928
-0.17459065 -0.05519513 -0.21743898 0.48214194 0.19448109 0.08096833 0.026145939 -0.13586007
-0.22340855 0.10302135 0.35594314 -0.1293255 0.082510725 -0.03620179 0.05183614 -0.23462582
0.26727155 0.25162166 0.03812734 0.025696928 -0.011855254 0.15932484 -0.017021857 -0.27017656
-0.12165587 -0.08090774 -0.16873701 -0.040094484 -0.061188903 0.04146556 -0.2433818 -0.004255971
-0.19865535 -0.029272178 -0.06577681 0.050330844 0.0952659 0.030342126 0.058554843 -0.24917634
-0.11347854 -0.30761895 -0.028745223 0.18741125 0.020705678 0.03643373 -0.05899482 0.3796715

context_transformer_1/attention/value/add;StatefulPartitionedCall/context_transformer_1/attention/value/add;context_transformer_0/attention/value/einsum/Einsum;StatefulPartitionedCall/context_transformer_0/attention/value/einsum/Einsum;context_transformer_1/attention/value/einsum/Einsum;StatefulPartitionedCall/context_transformer_1/attention/value/einsum/Einsum;12730 f4 [32]
00000000: 3755 913d 298b b1bc d6e6 abbc b30f 08be
00000010: 802b debd 0cc0 f7bc 0285 febc 9c6c bbbc
00000020: 4a0a bbbd 5cb9 9f3c dd82 c1bd 324e dcbc
00000030: 3773 bb3c f852 0cbe 935f 03bb aa76 92bc
00000040: 2cfd b13d 93a2 323c 7561 643d 8cf0 753d
00000050: fba3 3dbd edd8 89bb 0174 913c 763f c33c
00000060: 1f0a 6cbd 9137 443d 740f ab3c 51a9 fdbc
00000070: bc94 30bc 835d 94bc 31bb c9bd 4162 d4bd
0.070963316 -0.021672802 -0.020984095 -0.13287239 -0.10848141 -0.030242942 -0.031069282 -0.022878937
-0.09132822 0.019497566 -0.09448788 -0.026892755 0.022882087 -0.13703525 -0.002004598 -0.017878849
0.08690867 0.0109030185 0.055757005 0.060043857 -0.046298962 -0.004206768 0.01775551 0.023833971
-0.05762684 0.047904555 0.020881392 -0.030964525 -0.010777649 -0.018110996 -0.09850157 -0.10370303

context_transformer_1/bottleneck_input/norm/mul;StatefulPartitionedCall/context_transformer_1/bottleneck_input/norm/mul;context_transformer_0/bottleneck_input/dense/einsum/Einsum;StatefulPartitionedCall/context_transformer_0/bottleneck_input/dense/einsum/Einsum;context_transformer_1/bottleneck_input/dense/add;StatefulPartitionedCall/context_transformer_1/bottleneck_input/dense/add;context_transformer_1/bottleneck_input/dense/einsum/Einsum;StatefulPartitionedCall/context_transformer_1/bottleneck_input/dense/einsum/Einsum;12706;12708 f4 [32, 32]
00000000: 83e7 20bd aa41 d3bc e9d6 073e b916 023e
00000010: 44bd dc3d 8ce9 a03d c02c 203e 3d14 b03d
00000020: 3cca 71be 2760 733e b8d1 803d b26b 173e
00000030: 2e3e 82bd 7050 27bc ff32 233e 8d2d 21bc
00000040: e375 86bd b574 443e 0fba 3bbd e43a 84bd
00000050: e33f 5a3e 4ddd 08be c181 fbbd 7f0e a5bd
00000060: aee3 463e c5ea 6d3e f70d 933e 5373 493e
00000070: f49a d5be 66c8 333e 2dff 593d 37d2 38be
00000080: 4bc8 a93d 91ba ba3c c480 c1bd a16f a5bc
00000090: 5128 073e 2376 abbd e936 7bbe b14f 07bd
000000a0: 7a9c 82bd b3bb 953d 09e8 23be 4aee bb3d
000000b0: e23b 143c 7a7d 12be c0f8 9cbe 23e9 b63d
000000c0: 794b 0a3c 7ac6 24bd 0cc1 a0bd 86e3 083f
000000d0: 0a09 0f3e 5909 60be 6468 383e 445c 873d
000000e0: f4ce 583d b23d dabd 9e81 04be f6d8 ccbd
000000f0: 6d7d 1bbe b1d1 a1be 4d5d 02be 12ea c53e
00000100: a104 e53d 3a18 48be 435d 32be 0e9c bebe
00000110: d272 443e ef6a 603d 31c2 1abe b839 c83c
00000120: 15e5 cb3e a5a7 81be fcad f8be 61e2 8ebe
00000130: a294 77bd 449d 053e 4d95 c03d b85c 403e
00000140: 57d4 e53d 832f 6abd 8d78 413e 44c2 afbd
00000150: e3d3 14be 0c52 203c df04 fcbd eba4 b2bd
00000160: cf36 473d ccf9 113c db63 eeba cdb5 56be
00000170: de33 883d 3081 18bd d0f9 6d3d dba5 febd
00000180: 175d 1e3e 1253 433e 52f2 a73d 3966 33bd
00000190: 523a 8ebe 744f 90bd cd3c 18be 210b 733e
000001a0: 69f9 073e a02c 75be eb7f b23e b0f3 1e3e
000001b0: 9ff8 83be 9799 4bbe 1c97 b3bd 8ea3 2bbc
000001c0: 70c4 303d e5af e93c 0ce6 84bc e909 5c3e
000001d0: 089c 07be 883c bd3e 5f27 7cbe cf85 3fbe
000001e0: fab1 163e 2971 46be 736d a6bb 0b05 4f3e
000001f0: bc09 f5bb 7357 2a3e 4301 993e 80c3 953c
00000200: cdad 943e ea68 cfbd 7a8c 5fbd e483 5abc
00000210: 40ee ed3c ed9f 3eba 572e ee3d 0b1c 0f3e
00000220: 0c6d 32be 04c0 0abe d9e9 09bd a974 963e
00000230: fd94 823d 9bc3 3ebe 4e64 a5be 82e5 b3bc
00000240: 3404 b9bd 06fd 5e3d 04fb 103e 35fc a83d
00000250: 675d bc3c 9c61 e9bd 3df9 e53c 5b3f f63b
00000260: 1e7b 95bd f91e 7f3c dcfd 063e fc07 47be
00000270: 72f3 ddbb b3cd 27be 2d34 413d fce9 083e
00000280: b5df c63d 84b6 853e cfb2 25bd 08a9 5fbe
00000290: 78c3 523e 2d68 d2bd cb2c 89be e297 dcbd
000002a0: b7dc 35be edb7 c33b e6c3 97be 3e8a 10be
000002b0: 613c b6bd 2d6d 3bbd 9bfd 113e 6ecf 483c
000002c0: 60ea 253e e049 7f3e d96a 66be 67c0 553d
000002d0: 9f43 0abd 2a06 97bc 0c6d d0bc bfbd 353d
000002e0: 1015 efbc c98d cdbc 452c 97be 0627 8f3e
000002f0: 2e20 0f3d fc4a 11be 6ec2 a8bd 0de0 95ba
00000300: 5e92 e0bb d77b 2dbe 2420 f93d ae9a 8dbe
00000310: b7e4 2ebe 6c0a 48be 30ca 763e cc51 6b3e
00000320: 65b7 8ebe c9d9 99be 83fa a1bd 88e5 233d
00000330: 4cde 94bd d86b 403f 9c09 133d 5746 e23e
00000340: 8993 a03d b5ae a23e 2e3d abbe d1ce f6be
00000350: 2def e53e c869 a83e 90a2 fdbe 1676 043f
00000360: dcdc 34be 5a6f 0ebe de9b 0dbe c929 bebd
00000370: 0851 b2bd 2d2d 73be c951 e8bd a51e 343f
00000380: 3ee8 793e 0ba1 143f 9b97 9b3b e74b 25bd
00000390: ae96 223e b278 ee3e e1ab 943d a2a5 12be
000003a0: 8272 2dbe c1f5 553d 20ae 56be 7cb7 203f
000003b0: 32f4 26bf 77d4 353c e8a6 ebbe 9ef4 1dbe
000003c0: a4fc 0cbe e752 c33d a160 61be 28a7 b1be
000003d0: 748d 30be 2c9e 6a3d 6345 d9bd a2ba a03e
000003e0: 7d4f aabd de24 1e3e b278 3dbe e03b 5bbe
000003f0: 6651 0ebe 3092 87be f746 893e 1864 883e
-0.039283287 -0.025788147 0.13265575 0.1270398 0.10778287 0.078570455 0.15642071 0.0859761
-0.23612303 0.23767148 0.06290001 0.14787176 -0.06359516 -0.010212049 0.15937422 -0.00983752
-0.06565454 0.19185145 -0.045831736 -0.06456545 0.21313433 -0.1336567 -0.12280608 -0.080594055
0.1942279 0.23234089 0.28721592 0.19672899 -0.41719782 0.17556915 0.05322187 -0.1804894
0.08290156 0.02279404 -0.09448388 -0.02019483 0.13198973 -0.08372142 -0.24532665 -0.033034984
-0.06377502 0.073111914 -0.16006483 0.091763094 0.00904748 -0.14305678 -0.3065853 0.08931186
0.008440846 -0.040228345 -0.07849321 0.53472173 0.13968292 -0.21878566 0.18008572 0.06609395
0.05293174 -0.10656299 -0.1294007 -0.100023195 -0.15184565 -0.31605294 -0.12730904 0.38655144
0.111825235 -0.19540492 -0.17418389 -0.37228435 0.19184425 0.05478948 -0.1511314 0.024441585
0.39823213 -0.25323215 -0.4857024 -0.27907088 -0.06044448 0.13048273 0.09403477 0.1878537
0.11222141 -0.057174217 0.18893643 -0.08581975 -0.14533953 0.0097851865 -0.123056166 -0.08722862
0.048636254 0.008909654 -0.0018187718 -0.20967789 0.06650518 -0.037232578 0.058099568 -0.12433978
0.15465198 0.19074658 0.08200516 -0.04379866 -0.2777887 -0.070464045 -0.14866944 0.23734714
0.13278736 -0.23942804 0.3486322 0.15522647 -0.2577562 -0.19882809 -0.08769056 -0.010476006
0.043156087 0.028526256 -0.016222976 0.21488155 -0.13243115 0.36960244 -0.24624394 -0.18703388
0.1471633 -0.19379105 -0.0050789653 0.20216767 -0.007477967 0.16634922 0.29883775 0.018281698
0.2903885 -0.10127433 -0.05457733 -0.013337109 0.02904427 -0.00072717556 0.116299324 0.13975541
-0.1742441 -0.1354981 -0.03367028 0.2938588 0.063760735 -0.18629305 -0.3230309 -0.021960024
-0.09034005 0.05444052 0.14158255 0.0825123 0.022993756 -0.11395571 0.028072948 0.007514877
-0.07298873 0.015571349 0.13182777 -0.1943664 -0.0067734057 -0.16387062 0.0471689 0.13370508
0.097106375 0.2611581 -0.04045373 -0.21841824 0.20582378 -0.10273776 -0.26791987 -0.10771157
-0.17759977 0.0059728534 -0.29641646 -0.14115235 -0.08898235 -0.045758415 0.14256899 0.012256486
0.16202688 0.24930525 -0.22501697 0.052185442 -0.033755895 -0.018435556 -0.025442623 0.04437041
-0.029184848 -0.025092022 -0.29525962 0.2795946 0.0349428 -0.1418876 -0.082402095 -0.001143457
-0.006853386 -0.16941772 0.121643335 -0.27657074 -0.17079435 -0.19535226 0.24100566 0.22980422
-0.27874294 -0.3004897 -0.079091094 0.04001382 -0.07268962 0.75164557 0.035897836 0.4419429
0.0784064 0.31773916 -0.33445114 -0.48204663 0.4490904 0.32893205 -0.49538088 0.51742685
-0.17662376 -0.13909665 -0.1382899 -0.09285314 -0.08706862 -0.23747702 -0.11343724 0.7035926
0.24405 0.5805823 0.0047482974 -0.04035559 0.15877792 0.46576458 0.07259346 -0.14320996
-0.16938213 0.052236322 -0.20964861 0.62779975 -0.6521636 0.011098019 -0.46025777 -0.15425345
-0.1376825 0.09537297 -0.22009517 -0.34697843 -0.1724146 0.05727975 -0.106089376 0.3139239
-0.083159424 0.15443751 -0.18503073 -0.21409559 -0.13898239 -0.2647872 0.26811954 0.26638865

mention_transformer_0/attention/value/add;StatefulPartitionedCall/mention_transformer_0/attention/value/add;mention_transformer_0/attention/value/einsum/Einsum;StatefulPartitionedCall/mention_transformer_0/attention/value/einsum/Einsum;12834 f4 [32]
00000000: b059 623c f039 e6bd f889 a1bb 418e 32be
00000010: 3b42 383e 0cdd 9a3d 54d0 0fbe 0bc5 463d
00000020: 3140 81be 3732 78bd d41d e8bd 1286 5fbe
00000030: d7d2 03be 9af8 113e 8aa7 413d 108e 31bd
00000040: d22a 05be 270a 07be d9d8 eabd 4c93 713d
00000050: 33ac 473e d651 133d 9ab9 4c3d d945 ccbd
00000060: 9ecd 893c e29f 95bd 69f2 283e 919a 3b3c
00000070: 6090 0f3e 47e1 4c3d 5228 d23d 6ff8 053e
0.0138153285 -0.112415195 -0.0049297772 -0.17437078 0.17994015 0.075616926 -0.14044315 0.04852776
-0.25244287 -0.060594764 -0.11333814 -0.21828488 -0.12873398 0.1425499 0.04727892 -0.043348372
-0.13004616 -0.13187467 -0.11467142 0.058978364 0.19499283 0.035966717 0.04998169 -0.0997426
0.016821679 -0.07305886 0.16498722 0.011450426 0.14019918 0.05001953 0.10261597 0.13083051

mention_transformer_0/bottleneck_input/norm/mul;StatefulPartitionedCall/mention_transformer_0/bottleneck_input/norm/mul;sequential_1/dense_3/Tensordot/shape;StatefulPartitionedCall/sequential_1/dense_3/Tensordot/shape;mention_transformer_0/bottleneck_input/dense/add;StatefulPartitionedCall/mention_transformer_0/bottleneck_input/dense/add;mention_transformer_0/bottleneck_input/dense/einsum/Einsum;StatefulPartitionedCall/mention_transformer_0/bottleneck_input/dense/einsum/Einsum;12810;12812 f4 [32, 32]
00000000: 3c00 993e 2712 713e a8f1 41bc 379e 753e
00000010: ba04 43bd bdd1 913d dcde 993d 599a f4bd
00000020: 69c6 db3b 92ce c6be 8ac2 4bbe 9168 f33c
00000030: 94d8 3abe d1fa 5f3e 9dad bbbc b5be 0dbe
00000040: 7db6 6a3e cb88 5c3e 48d0 ca3e b628 ecbe
00000050: 5382 9238 381a a93d 90f4 a4bd 2aee 6a3e
00000060: 8fad babe bc69 5bbe a90e 4b3e 0c53 89be
00000070: 2d75 acbd 9cb7 43bd f744 9b3d 0200 103e
00000080: 473d 8ebd 661e 89bd 3685 44be cde1 493e
00000090: c03e 0dbe ec18 653e 8a9e a23e bd2d 04bf
000000a0: 1129 8bbe 7d04 af3d b1d8 423e e715 913e
000000b0: dad8 51bd f170 cfbb dd12 cebd c77f 4d3e
000000c0: 8642 933e 0fae f53a 04e2 21bd 8eae d43d
000000d0: eba5 393d 3138 1cbd 0c18 013e ce6c fc3e
000000e0: d799 2f3e 2ba0 5b3d 9271 3d3c 97b8 8a3e
000000f0: 3208 993e f02c 83bc 0de2 dfbd 9547 aa3e
00000100: 3897 203e 98bc 163d 145b 973d 9b28 5dbe
00000110: 44be f7bd a040 c43d 732f 023e aa75 1b3e
00000120: c6cd fcbd a988 583e 1d82 0abe 4308 11ba
00000130: 7d40 233e a5a9 ad3b 791b 6ebe 98ec 3b3d
00000140: 8344 8cbc 11b6 7cbe ba10 9c3e 51b1 3b3e
00000150: 7cdd 51be 3399 003b 296d a9bd 4482 d2bd
00000160: 5f0d 243e fc49 9d3d 3b7c 213c fbce febc
00000170: 8cbd 003e e617 213e 5869 38bd ec12 96bc
00000180: d84e 28be 24d0 c03e 2d45 e23c 1e3f a3bd
00000190: 9132 b3bd ad66 873d 4f81 0bbc f788 b4bd
000001a0: 4fa7 6abd 4304 f2bd bc5a b23d 0186 5d3e
000001b0: 320e 403e 3623 393c ded2 9f3d 1189 6d3d
000001c0: 674a 28be bbe2 b43d f5e4 273e c61b 65be
000001d0: 722b a7bc 67de efbd ae78 0c3d de0a e03d
000001e0: 5aef 123e 287c 97be d32e dabc ddf2 303e
000001f0: 703f 593d 0721 433e b1e9 cf3d f179 393e
00000200: 44cd 9b3e f132 31bd 4a1f 443d 192f e1bd
00000210: 656c 203f cd1f 9ebe 57e0 083e d6f5 17be
00000220: 9efa 4dbd 4b46 5a3d 1ab0 f4bd f2ef 853e
00000230: cf06 203d 17c0 10be a911 273e 7cff e0bc
00000240: 7026 d03e aeb8 733e 1fed 913d cfde 8ebe
00000250: db95 363d 87c8 a23d 7248 86be 1b3b 943d
00000260: 7ec0 7f3d a72e 453e d171 d23d 646e f8bd
00000270: 9317 0dbf e502 953d 9aff 69be 764d b43e
00000280: 23fc 0d3e 8e69 033d ecb6 5abd 626b e0bd
00000290: dd20 8dbc 85ee 9c3e b029 9cbe de04 6ebd
000002a0: ee54 c5be 0250 7cbd 0608 84bd 2e23 27be
000002b0: 63eb ebbd 3133 c03e 7ea5 62bd 7ec7 15bb
000002c0: 8d25 653d e864 8abe 2ebd 003e 24f2 20bd
000002d0: 8bfb 193e bec6 803e e9cc cbbe 6c55 ad3d
000002e0: 6eff 8dbd b6a6 583c 6f91 f13d 8fbe fe3d
000002f0: 4988 053e d18f 70be e257 97be 8608 4fbe
00000300: 3a8e 0cbe 94d3 3c3d 080c 21bd 2723 babe
00000310: 1029 393e 23e4 46be b6a9 a33e 98b4 8d3c
00000320: 1315 96bd 6d21 9bbd a89a 833d 9c53 1dbb
00000330: 64b9 2b3e fdcb 7d3c 1e00 733e 1b12 e2bd
00000340: 8949 c5bd d6b0 e43e 3e95 1cbe 4c3e 5ebd
00000350: b449 45bd 4579 ca3d 9a83 3dbe 0ce6 52be
00000360: 861b 133e 2249 8a3c 3730 163a bbd4 5abc
00000370: 771c ddbe 3444 6fbe 0eff f23b ebc6 77be
00000380: c99b ebbe d982 abbe f000 a3bd 56b5 8f3e
00000390: 9f6a 9dbd ba09 eabd d8cb 5f3e d571 6f3e
000003a0: d2cd 563e 7dec 133e 5277 d93d 02ce 13be
000003b0: 3f2b 8a3e 1667 b1bd 76c6 22be b8be 263c
000003c0: e2c4 e6be f4a1 86be f6ba 1dbe 5bbc ce3d
000003d0: d54a 29bd a4c7 1cbe 58fe 283e ae97 4dbe
000003e0: 9b47 6c3e 4937 f2bd 41da 19be ae25 573d
000003f0: c74a 5d3e 4eb1 aa3d 0f11 823e 7375 80be
0.2988299 0.23542081 -0.0118374005 0.23986135 -0.04761193 0.071200825 0.0751321 -0.11943502
0.006707002 -0.38829476 -0.1989843 0.029712947 -0.1824668 0.21873023 -0.022909934 -0.1384228
0.22921176 0.21536557 0.3961203 -0.4612481 6.986097e-05 0.08256954 -0.08054459 0.22942415
-0.3646054 -0.21427053 0.19829811 -0.26821172 -0.08420787 -0.047782525 0.075815134 0.14062503
-0.069452815 -0.06695251 -0.19191441 0.19715042 -0.13793468 0.22372788 0.3176158 -0.5163229
-0.2717977 0.08545778 0.19027974 0.28337023 -0.051232196 -0.0063306023 -0.10062192 0.20068274
0.2876169 0.001874389 -0.039522186 0.10384856 0.045324247 -0.038139526 0.1260683 0.4930176
0.17148529 0.053619545 0.011562722 0.27093956 0.29889065 -0.016012639 -0.10931788 0.33257738
0.15682685 0.03680095 0.07390419 -0.21597521 -0.12096837 0.09582639 0.12713413 0.15181604
-0.12343936 0.21145882 -0.13526197 -0.0005532542 0.15942569 0.005299764 -0.23252667 0.04587993
-0.017122513 -0.24678828 0.3048151 0.1832936 -0.20494646 0.0019622564 -0.08272774 -0.102787524
0.16020726 0.07680127 0.009856279 -0.031104555 0.12572306 0.15731773 -0.04502234 -0.01831957
-0.16436327 0.376588 0.027620876 -0.07971023 -0.08749879 0.06611381 -0.008514716 -0.088151865
-0.057288464 -0.11817219 0.087087125 0.2163315 0.18755415 0.011299899 0.078038916 0.057992045
-0.16434632 0.08832308 0.16395934 -0.22373876 -0.020406459 -0.11712342 0.034294777 0.10939573
0.14349118 -0.2958691 -0.026633656 0.17280145 0.053039014 0.19055568 0.10151995 0.18112923
0.30430043 -0.043261472 0.047881402 -0.10995311 0.62665397 -0.30883637 0.13366829 -0.14839873
-0.050287835 0.053289693 -0.11947651 0.26159626 0.039068993 -0.14135776 0.1631533 -0.027465574
0.40654325 0.23800918 0.071253054 -0.27904364 0.044576507 0.07948404 -0.26227146 0.07237836
0.062439434 0.19256078 0.10275615 -0.1213043 -0.55114096 0.07275943 -0.2285141 0.35215348
0.13865714 0.032083087 -0.053397104 -0.10957982 -0.017227584 0.30650726 -0.30500555 -0.05811011
-0.3854136 -0.06159974 -0.06446843 -0.16322014 -0.11519506 0.37539056 -0.055333607 -0.0022854502
0.055944014 -0.2703011 0.12572166 -0.039293423 0.15037362 0.25151628 -0.39804772 0.084635586
-0.06933485 0.013223341 0.117953174 0.1243869 0.1304027 -0.23492362 -0.29559237 -0.20218095
-0.1372613 0.046100214 -0.039318115 -0.36354944 0.1808207 -0.19422965 0.31965417 0.017298028
-0.07328238 -0.07574735 0.06425983 -0.0024006134 0.1676994 0.015490529 0.23730513 -0.110386096
-0.09633166 0.44666165 -0.15291306 -0.05425863 -0.048165992 0.098864116 -0.18507233 -0.20595568
0.14365968 0.016880576 0.00057292305 -0.013356383 -0.4318578 -0.23365861 0.007415659 -0.24196975
-0.46017292 -0.33498266 -0.07959163 0.28068036 -0.07686352 -0.114276364 0.21855104 0.23383267
0.20976952 0.14445682 0.10618462 -0.14434054 0.2698612 -0.0866224 -0.1589602 0.010177307
-0.45072085 -0.26295435 -0.15403351 0.1009452 -0.04133113 -0.15310532 0.16503274 -0.20077392
0.2307419 -0.11826951 -0.15024664 0.05252617 0.21610557 0.083345994 0.2540364 -0.25089607

mention_transformer_1/attention/value/add;StatefulPartitionedCall/mention_transformer_1/attention/value/add;mention_transformer_0/attention/value/einsum/Einsum;StatefulPartitionedCall/mention_transformer_0/attention/value/einsum/Einsum;mention_transformer_1/attention/value/einsum/Einsum;StatefulPartitionedCall/mention_transformer_1/attention/value/einsum/Einsum;12926 f4 [32]
00000000: e0a5 30be 916b 2e3e ada6 61bd b1d0 653e
00000010: df7a c4ba 34ea 7cbe a2f4 e53c 00db 52be
00000020: 2cc0 943d 09ca 2bbd 6552 9bbc 4710 18be
00000030: cf40 b63e bf3f 1abe 1caf 75be 10e5 06be
00000040: a0a2 333c 420f c03d 872d 6cbe 5ef1 1a3e
00000050: d177 09be f2c2 56bd 4233 cbbd f1f4 753d
00000060: 0c4f 283e 592d 4cbe 1edf df3e 455b cdbd
00000070: 68e6 9f3e 0dcf 483e eb12 893d 53ec 17be
-0.17250776 0.17033221 -0.055090595 0.2244289 -0.0014990232 -0.24698716 0.028070752 -0.20591354
0.072632164 -0.041940723 -0.018960187 -0.1484996 0.3559632 -0.1506338 -0.2399258 -0.13173318
0.010964066 0.0937791 -0.23064242 0.15131137 -0.13424613 -0.052432008 -0.09921886 0.060048047
0.16436404 -0.19939174 0.43724912 -0.10027174 0.31230474 0.19610234 0.066930614 -0.14836244

mention_transformer_1/bottleneck_input/norm/mul;StatefulPartitionedCall/mention_transformer_1/bottleneck_input/norm/mul;sequential_1/dense_3/Tensordot/shape;StatefulPartitionedCall/sequential_1/dense_3/Tensordot/shape;mention_transformer_1/bottleneck_input/dense/add;StatefulPartitionedCall/mention_transformer_1/bottleneck_input/dense/add;mention_transformer_1/bottleneck_input/dense/einsum/Einsum;StatefulPartitionedCall/mention_transformer_1/bottleneck_input/dense/einsum/Einsum;12902;12904 f4 [32, 32]
00000000: 81df b7be dbf7 9cbd e8e0 b23c f530 da3e
00000010: ece8 d13c c9e5 d53d 1d46 33be f8cd e3bd
00000020: 0044 5abd ae39 4fbe a32a 3f3e 0832 953d
00000030: 536f 36be 259b 153e 7837 76bd 59e4 74bd
00000040: bf8f c6bd 9cea 91be dc48 f7bd dbf9 2e3d
00000050: 7dce 25be 7141 2b3e 9b8c a53e c9d8 9abc
00000060: 51b6 bb3d 4c8e 21bf 45ec 12bd 0e98 7fbe
00000070: 73c6 543e 471c b9bd 3b08 2b3e 9d16 babb
00000080: 6e85 9dbc 74d2 cd3e 0eb7 853d 9dde bebe
00000090: 16fd 853c 833a 923e 006f ebbd b4a9 88be
000000a0: 53ae 24be 65da 60bd 8430 66bd d1fe 82be
000000b0: 19e9 a3be beb4 813e 4cd4 ae3e 153f f73d
000000c0: a361 083e c95c 75be 18e0 cd3e f1a3 aa3e
000000d0: b18d 21bd 8ad5 34be 7562 7cbe fb9b d13c
000000e0: d1ea d2bc f994 2f3d 0f52 b13b 1ae2 85be
000000f0: 756d 14bd ddb2 dbbd 7b6a a6bc ac2a 0cbe
00000100: a494 1a3e f114 7f3e 64bb 6ebe bb3c 773d
00000110: c460 92bd 0287 51bd 4eba a23e e493 52be
00000120: 6e5d ed3e 3a0f bebd 94f2 c9bd 71ec 76be
00000130: 37e9 883e 092b ae3e 4ad6 5c3d 6fc8 9c3d
00000140: 1449 233e a14e 3abe 6be7 683e 29f8 82bd
00000150: dfd9 61be d763 763e 5fc5 3f3c 8eaa 66ba
00000160: 3b8f 42be 3ef0 1dbb 0508 063f d00b 273e
00000170: bd8d aebd 62bf 70be 6e1e 023d 4a15 99bd
00000180: 8e02 4abd 0c96 25be 44e0 a6be d42d 39be
00000190: e64d 553e cdc9 45bc 3bc1 893e a9ad 69be
000001a0: d081 46be dc3f 1ebe f6cc 97be 8341 cebe
000001b0: ceba 743d 8d78 ca3d b4ce 6a3d 29db 423e
000001c0: 27fe 923e 2a3b 86bd e2fc babe 1834 06be
000001d0: 1af4 98be ea1d f5bd a274 cabd 06f5 cb3b
000001e0: 932b 54be cbf6 003f 3a3b 283e e61b c53d
000001f0: a280 76be 46aa 4ebf 5a50 b9be 7a6c 48be
00000200: 85c1 0ebe 2771 983e 3295 d63d 7680 4b3e
00000210: 84c5 bd3d 8c34 cd3d 4719 dfbd 68ba 57be
00000220: 51ff b7bd 4555 afbd 0ab1 1ebd 5798 1cbe
00000230: 19f9 2ebd 597a 64be f1b5 09bd 647a 1bbd
00000240: 77b5 31be d942 5bbd 5a96 7bbd d072 82bd
00000250: d28a 3f3e db87 3abe f1e7 de3d 1556 28bc
00000260: d8d0 62be ff50 2abc 342e 90bd f80c 04be
00000270: eb80 bc3d 5918 343b e569 1ebe 1577 fe3d
00000280: 5f12 a13e ba39 cf3e ed1f 24be dd6f 0dbe
00000290: 1b81 4cbe 5f04 8e3e 3fbc d2bd 3dcc 36bd
000002a0: 5f46 c83d 1ed3 b5bd 5e40 2cbe 0ddf 313e
000002b0: 6ec4 993d 3e45 e53d fe4e 813c d96b cbbd
000002c0: c974 ccbd 149a d7bd 930f eb3e 7721 c23e
000002d0: b246 aa3e f1a0 a3bd 2355 e93d 0935 a8bc
000002e0: 054a 253e e471 133f e510 57be 4cf9 aa3e
000002f0: 604d 8aba 3075 eb3e afec eebd 5b7c 763d
00000300: 9da3 11be f30b 693c 6c94 03bd 29f1 3b3e
00000310: 6c78 9b3c ee65 34be b79c 63be 9727 21bc
00000320: ff79 fcbd c34d 2a3f 38cf d53c 2251 753e
00000330: 302d 9d3d 5d3f a0be b62c 43bd ff6f 7dbe
00000340: 3610 98be 409c 283e 0cd6 09be 9933 7b3b
00000350: 0c7b 8c3e a9e8 1bbe 7128 a93e 1ac3 39bd
00000360: a98d 2e3e d6ec c63d 9f40 2bbe aef6 973e
00000370: c0e6 5b3d ca80 583e 1b83 893e 0d69 6b3e
00000380: a54c ea3c 7cfb d93e 4c31 babd 5ad4 0abe
00000390: 7671 2c3e 2958 b03d 3377 38be 16a9 3cbe
000003a0: eca6 18be 6b1e 3dbd d0cc 023d ae6f 50bd
000003b0: b360 babd 9875 533e facf d9bd e916 323d
000003c0: 02e7 e03d 39cd febd 8feb 353e fca6 89bc
000003d0: c768 153e 4047 31be 0e71 0ab9 5191 083d
000003e0: 0f85 f4bd c4bf 053f 8d94 123d 2a78 253e
000003f0: 864b 443e 1075 48be 194b eebe 2181 1bbe
-0.35912707 -0.07664462 0.02183576 0.42615476 0.025623761 0.10444219 -0.17507215 -0.1112327
-0.053287506 -0.20236847 0.18668608 0.07284933 -0.17815904 0.14609964 -0.060111493 -0.05978808
-0.09695386 -0.28499305 -0.12074444 0.04271875 -0.1619205 0.16724183 0.32333836 -0.0189022
0.091656335 -0.6310775 -0.035869855 -0.24960348 0.20778827 -0.090385966 0.16702358 -0.0056789652
-0.019228663 0.40199625 0.065290555 -0.37279215 0.016356032 0.28560266 -0.11495781 -0.26691973
-0.16082124 -0.054895777 -0.05619861 -0.25585034 -0.32013777 0.25333208 0.34146345 0.12072579
0.13318495 -0.23961176 0.40210032 0.33328202 -0.039441768 -0.17659584 -0.24646933 0.025587073
-0.025746735 0.04286668 0.0054113935 -0.26149064 -0.0362372 -0.10727475 -0.020314446 -0.13688153
0.15095764 0.24910332 -0.23313671 0.06036065 -0.07147363 -0.051154144 0.31782764 -0.20564228
0.46360344 -0.09280248 -0.09860721 -0.24113633 0.2674043 0.34017208 0.0539153 0.07655417
0.15945846 -0.18194057 0.22744529 -0.06394989 -0.22055767 0.24061523 0.011704772 -0.00087992183
-0.1899995 -0.0024099494 0.52355987 0.163131 -0.08523128 -0.23510507 0.0317673 -0.07474764
-0.049318843 -0.1617052 -0.32592976 -0.18083888 0.20830497 -0.012072039 0.26905236 -0.22820152
-0.19385457 -0.15454048 -0.2964856 -0.40284356 0.059748463 0.098862745 0.057326034 0.19028915
0.28709528 -0.065542534 -0.3652106 -0.1310581 -0.29873735 -0.11968596 -0.09885527 0.0062242774
-0.20719747 0.50376576 0.16428843 0.09624462 -0.24072507 -0.80728567 -0.36194116 -0.1957263
-0.1394101 0.29773828 0.104776755 0.19873223 0.09266189 0.10019788 -0.10893493 -0.21067202
-0.089842446 -0.08561186 -0.038743056 -0.15292488 -0.042718027 -0.22312297 -0.03362078 -0.037958518
-0.1735438 -0.053530548 -0.061422683 -0.06369555 0.187053 -0.18215887 0.10884083 -0.01027443
-0.2214998 -0.010395288 -0.070400625 -0.12895572 0.09204277 0.0027480333 -0.15470083 0.12425057
0.3145933 0.4047373 -0.16027804 -0.13812204 -0.19971125 0.2773771 -0.10289811 -0.04462837
0.09779047 -0.08878158 -0.16821429 0.17370243 0.07508169 0.111948475 0.015784737 -0.0993268
-0.099832125 -0.10527435 0.4591032 0.37916157 0.3325706 -0.079896815 0.11393192 -0.020533102
0.16141517 0.5759566 -0.21002539 0.33393323 -0.0010551624 0.45987844 -0.116662376 0.06017719
-0.1422257 0.01422404 -0.032123968 0.18353714 0.01897832 -0.17617008 -0.2222775 -0.009836099
-0.123279564 0.66524905 0.026099786 0.23956731 0.076746345 -0.31298342 -0.04765006 -0.24749754
-0.29699868 0.16465855 -0.13460559 0.0038330315 0.27437627 -0.15225472 0.33038667 -0.04535208
0.17046227 0.097131416 -0.1672387 0.2968039 0.053686857 0.21142879 0.26857838 0.22989292
0.028601 0.4257468 -0.09091434 -0.13557568 0.16840157 0.08610565 -0.18014221 -0.18423876
-0.14907426 -0.046171587 0.031933606 -0.050887756 -0.09100475 0.20650327 -0.106353715 0.04347888
0.10981561 -0.12441487 0.1776564 -0.016803257 0.1459075 -0.17312336 -0.00013202822 0.03334171
-0.119394414 0.52245736 0.0357862 0.1615912 0.19169435 -0.19575906 -0.4654167 -0.15185978

context_transformer_0/attention/value/einsum/Einsum;StatefulPartitionedCall/context_transformer_0/attention/value/einsum/Einsum3 f4 [32, 32]
00000000: b9e4 033e 522d ff3d bb2c 59bd e075 95bd
00000010: 2dc3 49bd 6cdc e33e 7670 2ebe f91e 0f3e
00000020: f1da 5bbd cd61 1a3f 3418 563e f6d5 183c
00000030: 3e79 0c3f f57d 99be 6515 ee3e a249 2ebe
00000040: 9ccf 6abe f081 9d3c 6705 02be 00fa 05bf
00000050: 85d2 a4be aec7 6abe d5d5 9ebe 45dc 843e
00000060: a12c 073e 6df6 4b3e ea4f 7dbe df9e 893e
00000070: b7cd fc3c 86c0 e33e baf0 6cbe fdd2 02bd
00000080: baff b7be 558f 443b c06c 553e c1d0 a9bc
00000090: 538e 4dbe bb06 8d3e 39bf 263e 1e58 4a3e
000000a0: c6a7 aabe e420 5c3d 45ba f03a c3ee 9a3c
000000b0: c242 29bd 5796 52bd e7dc bebe 63b6 113e
000000c0: 4248 db3d 3e0a 2dbe 4a94 0c3c c379 ff3d
000000d0: 40ac bd3e 2873 d3bc 36ef 863d cf11 293e
000000e0: b98f aabc 51ee b03e 2a1c 3bbc 8ca8 bfbc
000000f0: 7b4d bbbe ee44 0a3e 50cd 2bbe d4b4 a1bd
00000100: 817e 6ebd 140e 0abc 2666 ea3d ef55 a23b
00000110: acca e03d 894d 8a3d 5513 1a3e f295 0e3f
00000120: dd7b b8bc b81a 32be ef40 2d3e 4aa6 36be
00000130: 281a 80bc 671c 6dbd 00c9 00bf 0517 553e
00000140: 7155 453d d2e9 09be 7abc 7abe 4cd8 0ebe
00000150: bece b23d 8c2c 09bd 2c11 2c3e 0335 3b3d
00000160: 6b45 dcbe c6a7 d63e f26f 94be 6798 f13d
00000170: 5f5e cebe 1f44 733e ae10 0bbe fe6c b6bd
00000180: c1e1 78be dc87 803e 375a 0bbe 2e17 ff3c
00000190: c93b aebd 1b1c c03e f0dc 04be fd2d 2d3e
000001a0: de7f 303d 2f96 5e3e 8e11 093c 3f31 c93d
000001b0: a1e2 a73d 8eb5 f3bd 283f 0a3c baac 81be
000001c0: 0f97 943e 9a92 94bd 7f7d de3d 11d9 b4bd
000001d0: da44 de3e 66fe 3abd 5e44 b4bd 0381 c6be
000001e0: fb15 2ebe 1265 12bf 1112 47bc 8359 ac3e
000001f0: 6c4f 0bbf 1555 983d 6482 903c 6017 39be
00000200: 8594 88be 44da debb acf6 e93c 5a9e a73c
00000210: d168 9abe eb49 8fbe d875 893e b189 563e
00000220: 08a1 dbbe a594 a9bd 2949 133d de99 bebe
00000230: a5c5 673d b4ec 0cbf 186b 4ebe 3cfc a33d
00000240: a2a9 08be b2ac 01bd d95b 393e b903 e83d
00000250: 3e77 14bf f296 78bd 012b 4ebe fb55 c73c
00000260: 1061 eebc 956e 2fbd 0f53 18be 2281 7bbd
00000270: 1cba 883d e75f b33d deb8 0b3e 03ae 00be
00000280: 7bcb 923d af95 25be 8af8 073d f7be 073e
00000290: 7b94 413e 544a e6be 4ff8 6abe cefb 4e3e
000002a0: e516 873d bcc8 64be fe8d 4e3e 22c7 7dbe
000002b0: 0fe0 ea3e 34c4 83be dcbe 043e 2aa7 72bd
000002c0: 35bd c53d 78e6 b0bd 1835 d6bc 9f64 163f
000002d0: 75a1 a33e b316 2e3e 7cd6 083d 39e5 123e
000002e0: 0e10 19bd b551 e33e 7025 32be 83d5 103e
000002f0: 7b82 12be bcff 9dbe a2b7 54be c653 abbe
00000300: 945a 9d3e 025d d93e 4f89 493e 66e9 083e
00000310: 0e9a f93d 67dd 5ebd ed0b 37bd 3607 f43d
00000320: 060f 033f fcf7 c1be b9b2 00be 6131 82be
00000330: 1b52 50be 05b0 be3e 3119 eabd 7b09 84bb
00000340: 67e1 1c3d 423b 073e e10c 8e3e 6644 a5be
00000350: 2dd0 15bf b284 6d3d 18e2 1a3e 6055 5dbe
00000360: a424 e8be c6df 383d 8229 9cbd ca0d ddbd
00000370: 9702 8abe 939a 2c3b 64ed 143e a478 153e
00000380: 47cc ca3e 7673 d4bd a5d5 7abd df72 9d3e
00000390: dc33 483d cefe 17bd b6e0 e53a 93f2 11be
000003a0: d1da d83e 72ba 0dbe afbb 48bd d0f1 263e
000003b0: 00f6 77be 96b1 42bd 4395 6c3e 8bb6 fd3b
000003c0: 0875 5ebe 1003 a43e 2c33 dbbd a9ef 413e
000003d0: c32f c83e e4f7 87be d0a6 333e 1b66 503e
000003e0: ca9a a7bd f39f 243f d809 833d 6c6b 233e
000003f0: 05df fc3d 4257 92be d2aa 833e 4593 283e
0.1288022 0.12459816 -0.053021174 -0.072978735 -0.0492584 0.44504106 -0.17035088 0.13976659
-0.053675596 0.6030548 0.2090767 0.009328356 0.548725 -0.2997891 0.46500698 -0.17020276
-0.22930759 0.019226998 -0.12697373 -0.52334595 -0.32191864 -0.22927734 -0.31022516 0.25949302
0.13200618 0.19918223 -0.24737516 0.26879022 0.030859811 0.4448282 -0.23138705 -0.031939495
-0.3593729 0.002999266 0.20842266 -0.020729424 -0.20073824 0.27544197 0.16283883 0.19760177
-0.33331126 0.053742304 0.001836606 0.018912679 -0.04132343 -0.051412906 -0.3727791 0.14229731
0.107071415 -0.16898438 0.008580277 0.12474396 0.3704548 -0.025811747 0.065885946 0.165107
-0.020820485 0.3455682 -0.011420289 -0.0233958 -0.3658255 0.13502857 -0.16777539 -0.07895818
-0.058226112 -0.008426208 0.114452645 0.0049540917 0.109761566 0.0675307 0.15046437 0.5569755
-0.02252 -0.17393005 0.16919301 -0.17836872 -0.015637472 -0.057888415 -0.503067 0.20809563
0.048177186 -0.13468102 -0.2448596 -0.13949698 0.08730839 -0.03348975 0.16803426 0.045704853
-0.43021712 0.41924876 -0.28991657 0.117966466 -0.40306374 0.23756455 -0.13580582 -0.08907507
-0.24304868 0.25103652 -0.13608633 0.031138983 -0.08507497 0.37521443 -0.12974906 0.16912074
0.043090694 0.21736978 0.008366002 0.09823846 0.08197523 -0.11899863 0.008437909 -0.25327092
0.290215 -0.072545245 0.1086378 -0.08830465 0.43411905 -0.04565277 -0.088021025 -0.38770303
-0.17000572 -0.5718547 -0.012150303 0.33662042 -0.54418063 0.07438103 0.0176403 -0.18075323
-0.2667581 -0.0068009216 0.028560005 0.02046125 -0.30158094 -0.27986082 0.2684772 0.20950963
-0.42896295 -0.08280305 0.035958443 -0.37226766 0.056584973 -0.5504868 -0.2015804 0.08007094
-0.1334596 -0.031658836 0.18101443 0.11328835 -0.5799445 -0.060690828 -0.20133592 0.02433299
-0.029099017 -0.04283007 -0.14875434 -0.061402448 0.066761225 0.08758526 0.1364474 -0.1256638
0.07167717 -0.16170381 0.03319601 0.13256441 0.18904297 -0.44978583 -0.22946285 0.20213243
0.06596164 -0.22342199 0.20171353 -0.24782994 0.45874068 -0.2573563 0.12963432 -0.05924145
0.09655229 -0.086377084 -0.026148364 0.58747286 0.3195912 0.17000847 0.033407673 0.14345254
-0.037368827 0.44398275 -0.17397094 0.14143948 -0.14307587 -0.30859172 -0.20773175 -0.33462352
0.30733168 0.42453772 0.19681285 0.13370284 0.12187587 -0.054410364 -0.044689108 0.11915438
0.511948 -0.3788451 -0.12568177 -0.25428298 -0.20343821 0.37243667 -0.11430586 -0.0040294505
0.038300898 0.13206199 0.277442 -0.32278746 -0.58520776 0.057987876 0.1512531 -0.21614599
-0.45340455 0.045135282 -0.076251045 -0.10793646 -0.269551 0.002633725 0.14543682 0.14596802
0.39608976 -0.10373585 -0.061238904 0.30751702 0.048877582 -0.037108235 0.0017538283 -0.14252691
0.42354444 -0.13840654 -0.049007114 0.16303182 -0.24214935 -0.04753264 0.23103814 0.007742708
-0.21724331 0.32033587 -0.1070312 0.1893908 0.3909894 -0.26556313 0.17544103 0.2035145
-0.081838205 0.64306563 0.06398362 0.15958947 0.12347225 -0.28582197 0.25716263 0.16462429

context_transformer_0/kq_shared_bottleneck/dense/einsum/Einsum;StatefulPartitionedCall/context_transformer_0/kq_shared_bottleneck/dense/einsum/Einsum f4 [32, 32]
00000000: 6d4d 533e 7148 ef3c 85aa 703e b22a 253e
00000010: 8637 3fbe 1306 7bbd 4f23 29be c765 f2be
00000020: c757 b63d 572b 4cbf 0c3f 9a3e 01be 83be
00000030: 08a7 423d c483 c7bd 0c1b ad3e 49c4 193e
00000040: aa59 443c a4fc cebe 0be7 02be b9bb 99be
00000050: e9f3 cbbe a2d3 8b3d e21c 96be 0170 e1be
00000060: ea32 c1bd a93f 393c 008c 8dbe 2444 e3be
00000070: ac89 dc3e 4c8f 26bc c2d2 8abe 1116 2f3e
00000080: f7df d9be 4c10 d0bd 4f17 50be 56c4 723d
00000090: c3ec a9be bb68 1ebd 63c8 6e3d 58e0 d9bc
000000a0: 15c5 863d ed65 1e3e ea22 c9be fd69 923e
000000b0: cc22 cdbd 01fb de3d 5df5 463d bf3b 593d
000000c0: 1e0a 003e 743e 9e3e 9ac8 7bbd ea7f d03e
000000d0: 3679 c33d 214a e6bd 4e5f 1cbd f78b a53e
000000e0: cc51 b93e 157a 1d3e 9e1b 993e 784d 4b3e
000000f0: 5a34 433e d116 7abe e09c 453e 6926 37bd
00000100: d0ca cabe 469b 2c3e e9f0 28be b0dc 80bd
00000110: 8978 8fbe 9498 473e 4f53 46bd 2b5d 5dbe
00000120: b6a1 373e 6b6f 873e 3851 20be a46d 253e
00000130: f288 573c f3f0 c1bc a915 80bc 9e4f 103e
00000140: c1c5 b03d ad10 703e 1246 b4be 3fd1 8d3e
00000150: ff21 803e 9420 6abe e2e8 25bd 7eb7 b83e
00000160: 05e7 9a3e 56a8 b03d 3a82 d73d 6929 023f
00000170: cae9 e33d 49a5 1b3c a78d fbbc c30d 97bd
00000180: bcd4 0ebe 4647 ea3e 4f7f 06be 11f7 fbbd
00000190: 832b e7bd 4438 0b3d 5efb 61be ca61 b1bc
000001a0: fa4d 543d 8f98 4cbd d01e e53d 51bf 7cbd
000001b0: 2882 9e3e 10f7 5ebd 9f28 23be f541 1ebe
000001c0: 028e 5d3d c9ac 0fbe 22b4 f2bc 1eb3 03be
000001d0: 1a91 ffbd 4687 dc3d 9621 8ebc 54f0 013f
000001e0: 3d7e ddbc 5a3c dfbd 43fe b83e 1787 aebc
000001f0: 2612 a33d f144 203e 8a3b 31be 0407 99bc
00000200: e614 fa3d cac1 8d3e b74a c83d a6b8 0b3e
00000210: 2d32 1b3e d0cb b0bc 4c86 0cbe 4f39 4aba
00000220: d052 1bbe 9057 86bd 8405 84be 4648 2dbe
00000230: c072 7ebe 91ef 593e 429c bc3c fe3f c1be
00000240: b79a 153e f6c4 a4bd da67 063e 7da5 113d
00000250: 10c7 553b e8f0 a7bd 5894 823c d26e 3c3e
00000260: cefc f1bd f99e 263e 607c 073f c82a 533d
00000270: 502e d0be bbd4 6f3d d6bb 1c3e 7233 c8bd
00000280: 9e7a 113d 3f1e 7a3d 3298 e0bc fc36 8bbe
00000290: 8c6d 4cbd 2c08 543d 7f38 e93d 5559 423e
000002a0: bbda b03e 65ba 25bd a23c 3c3e 5152 29bd
000002b0: 9148 7d3d e9bc dabc c9b2 55be 3868 6a3e
000002c0: d880 163c 3981 5e3c 09fe 6c3d 1a18 9e3d
000002d0: 388c a33c 5726 193e e919 443e 6038 46be
000002e0: f1e5 33be 5d73 87be f092 24bf e6be 65bd
000002f0: 808a 08be eb98 9bbd 034d b2bc c623 3d3b
00000300: 745c be3d be70 e23d 4d74 cd3d 17dc 463e
00000310: c36e 943e 6e36 95bc 2b0f 02be 1f3f 8abe
00000320: 01e6 c3be 7c46 5f3e 0180 0abe fde2 febd
00000330: 0368 d0bb 8e61 9dbd 620d 003d 6683 c5be
00000340: b054 093d c942 80bd dc62 4ebe b45f 08be
00000350: 5e5a dabc 49f1 27be f5ed 5dbe 3403 7abd
00000360: 8ae4 fd3b 5bd7 b63e 5259 083f 4ce1 f73d
00000370: dcf8 87bc da99 663e 421f 573d 46ee baba
00000380: 1f3a 723d 6e24 5a3e a490 c53d 01ca c2be
00000390: 9781 08be 0366 0e3d dde5 753d fa30 d53c
000003a0: 83bc 803e 8343 36be 7eb1 f73e a8a4 1abe
000003b0: 1a0f 18bd fbec a1bc 3377 abbe 063c 273e
000003c0: 5633 fd3d dd20 cfbd 7972 1cbd 9461 e0bd
000003d0: 2ed1 9e3b 3717 933e b4a8 4f3d d4c9 abbc
000003e0: 63f4 8cbe 8556 c1be 3c5a 0dbf 5397 2cbe
000003f0: b148 87be 7bc5 6c3d 68a0 dcbd 0f46 4a3e
0.20635004 0.029209347 0.23502548 0.16129568 -0.18673524 -0.06128509 -0.16517375 -0.47343275
0.08903461 -0.7975363 0.30126226 -0.257309 0.047522575 -0.09741929 0.33809698 0.15016283
0.011984268 -0.40427125 -0.12783448 -0.30026034 -0.39834526 0.06827475 -0.2931891 -0.44030765
-0.09433539 0.011306682 -0.27645874 -0.44387925 0.43073785 -0.010166001 -0.2711392 0.17098261
-0.42553684 -0.101593584 -0.20321392 0.05926927 -0.33188447 -0.038674098 0.058296572 -0.026596233
0.06580559 0.15468569 -0.3928445 0.28596488 -0.100164026 0.10887719 0.04857384 0.053035494
0.1250386 0.30907023 -0.061470605 0.4072259 0.095446035 -0.11244608 -0.038176827 0.32333347
0.3619522 0.15378602 0.29903883 0.1985377 0.1906294 -0.24422766 0.19298124 -0.044714365
-0.3960786 0.16856107 -0.1649815 -0.06292093 -0.2802165 0.19491798 -0.048419293 -0.21617572
0.17932782 0.26452193 -0.15655982 0.16155106 0.013155209 -0.023674464 -0.015635328 0.14092872
0.086314686 0.23443861 -0.3520971 0.27698705 0.25025937 -0.2286399 -0.040505297 0.36077493
0.3025438 0.086258575 0.105228856 0.50844437 0.11128576 0.009499856 -0.030707194 -0.07375672
-0.13948339 0.45757502 -0.13134502 -0.123029836 -0.11287596 0.033989206 -0.22068545 -0.021653075
0.051832177 -0.04995018 0.11187518 -0.06170589 0.30958676 -0.054434836 -0.15933464 -0.15454848
0.054090507 -0.14030756 -0.02962691 -0.12861297 -0.12478848 0.10767989 -0.01735 0.50757337
-0.027037734 -0.10900183 0.36131486 -0.02130465 0.07962446 0.15651299 -0.17307869 -0.018680103
0.12211017 0.27686912 0.09779876 0.13644657 0.1515586 -0.02158156 -0.13723105 -0.0007714228
-0.15168309 -0.0655967 -0.25785458 -0.16922101 -0.24848461 0.21282794 0.023023728 -0.37744135
0.146098 -0.0804538 0.13125554 0.035558213 0.0032619871 -0.08200246 0.015939876 0.1840165
-0.11815797 0.16271581 0.52924156 0.05155447 -0.40660334 0.058552485 0.15306029 -0.097754374
0.035517327 0.061064 -0.027416322 -0.27190387 -0.04990916 0.051765606 0.11387729 0.1897939
0.34541878 -0.040460963 0.18382505 -0.04133827 0.061836783 -0.026701408 -0.20868982 0.22891319
0.009185992 0.013580614 0.057859454 0.07719441 0.019964322 0.14956032 0.19150509 -0.19357443
-0.17568184 -0.26455203 -0.6428671 -0.056090258 -0.13334084 -0.07597526 -0.021765238 0.0028860434
0.09294978 0.1105666 0.10031948 0.19419895 0.28990754 -0.01821443 -0.12701099 -0.27001283
-0.38261417 0.21804231 -0.13525392 -0.12445638 -0.0063600554 -0.07684623 0.031262763 -0.38576812
0.03352803 -0.06262738 -0.201549 -0.13317758 -0.026654419 -0.16400637 -0.21672805 -0.06103821
0.0077481912 0.35711178 0.5326129 0.12103519 -0.016598158 0.22519627 0.052520044 -0.0014261685
0.05913746 0.2130296 0.09646729 -0.38044742 -0.13330685 0.034765255 0.060033668 0.02602433
0.25143823 -0.17799191 0.48377603 -0.15101874 -0.037123777 -0.019766321 -0.3348938 0.16331491
0.12363307 -0.1011369 -0.038195107 -0.109561116 0.0048467135 0.2872865 0.050697997 -0.020970263
-0.27530202 -0.37761322 -0.5521581 -0.168546 -0.26422647 0.05780552 -0.107727826 0.19753288

context_transformer_0/attention/attention_output/einsum/Einsum;StatefulPartitionedCall/context_transformer_0/attention/attention_output/einsum/Einsum f4 [32, 32]
00000000: 039f 8a3e 9377 a03d a947 1a3e 7b09 25be
00000010: 96e6 a33d 3ef8 79bd 37c5 2cbd 78d2 43be
00000020: ad84 19be 730d 523d 2ba3 af3c fcd8 c2be
00000030: 326c 1a3e dcb7 89bd e49e 823d 317d 163e
00000040: 0143 973d e4a9 90be dfa4 923e c5ab 643d
00000050: 1d93 023e 0011 ddbd 9e70 a0be 93c0 55be
00000060: decd 24bc e2ba a63e c2a4 693c a709 0e3f
00000070: 1d9a 103d 90ad 0a3e 45d1 073f 3295 8ebe
00000080: 0817 1d3d 050d 9f3e 9fb7 a23e 906c cb3d
00000090: 8609 83be e232 98bc a470 053d 02cc 593e
000000a0: b07b 583e 937f debe 3913 b6be 2c59 38be
000000b0: 4f1f fabe 7357 25be 7f45 e23e 260b 62be
000000c0: 8624 ad3d db1c b93e 4d05 0c3e 516b fe3d
000000d0: 6c47 893e 55e3 51be 9e94 c8be 2788 003d
000000e0: 9ac8 9bbd 0847 043e 0e53 3d3d 023b 583d
000000f0: f1ce f53d 7c45 a0bd 8e1d 063e 22c8 85be
00000100: 710e c03e 3344 23be e9a0 65be a8c8 003e
00000110: 4cad 1fbe c951 8dbe bd18 6cbe 4e7d c13d
00000120: 89f1 083f 0b49 523d e5cf 703d f80c 953d
00000130: 29e0 b83e 9aab ec3d a19a 48be ffa0 e5ba
00000140: d253 203e 9dd9 eb3d ed0f be3d fe37 02be
00000150: 5651 fbbe 6b01 58be 4645 46be aa60 7fbe
00000160: df4e 41be 2971 04bf 3d66 9dbe ff62 923e
00000170: ad77 093e ad5b 853e a69e 843f d12b b73d
00000180: cf6a cb3e 0dec 7abd 6883 2e3e ba88 343e
00000190: 8ac3 e03d badf b63d dd16 cf3d b00f dabc
000001a0: 9b56 2ebe 60e8 b63d 1a24 adbd 5f06 f6bd
000001b0: 3e09 9d3e 8a5e 97be a375 a3bc 1077 453e
000001c0: 4fba c93e 17eb 05be 74ef 41be b19c ef3d
000001d0: 75c6 efbc 6c89 e8bb 149c d53d 4f07 05be
000001e0: b704 623e 7b48 9ebd 433a 29be 6c02 a53d
000001f0: c8a1 fcbd 74e5 033d de0a a73e 2fef 223e
00000200: 9c64 b4be d0b5 8a3d 1970 62be 8a31 25bd
00000210: 68fa 313e 8d25 5bbe 9222 aa3d 26cb c63c
00000220: 3d0f 8b3e d142 843b 738a 4d3e 4c4a 3fbe
00000230: 321b aebd 26ce 013e d001 99bd 67eb 79be
00000240: 5980 c13e aad1 2bbe b8c1 57be 2e3f 433c
00000250: cebc 3fbe 18ef a1bc 1f16 793e 5700 153e
00000260: 1217 44be c783 a8be 85be dabc ce77 9bbd
00000270: 6223 ed3e 02c4 04be 75a3 8dbe 6581 073e
00000280: c9b0 22bb b48a 313e a0a9 81bd e1e0 0c3e
00000290: 38b4 43be ee03 a8be b731 a73e b87c 803d
000002a0: ede8 64ba b885 bf3e d058 363d 6661 5a3e
000002b0: b83c cbbe 51f9 47be 2054 96bc eeda 543e
000002c0: 1f87 04be 4b67 c53e 096a 04bc 382f 7b3e
000002d0: 6f80 0bbe 2e9a 7e3d 4d02 d83c be24 823e
000002e0: 9323 81be e812 b6be 586a f7be 0f97 c0be
000002f0: 1f90 80be fa90 49be 6060 4ebd 1454 f03d
00000300: 9a92 4b3c 732c c4be d3cd 833c 75c6 163e
00000310: d303 dabd 56cf c0be f7e9 d03e 4b89 d0ba
00000320: 95e6 c43e 5ef0 da3e 0543 e4be 0c80 d1bd
00000330: effe 91bd 8f3f c23e 7a2e d53d b7eb 093e
00000340: e143 3d3e 2941 9b3e 9c71 a63e 5e6a 5ebe
00000350: cffa b2bd c382 d93d 62b0 7a3d c494 e03d
00000360: ce28 30bf 89e2 f0be 30d6 fa3d f9ff 223e
00000370: fb8a 413d c29f 93bd c272 da3e 2f4f 04be
00000380: ed70 2d3f a56d d23d 55ca 8f3c 4b7d 9ebe
00000390: c8eb bf3e 3543 19be 85bd ddbd f436 35bd
000003a0: 6eb9 ccbc aebb ca3e 10f7 5ebd 8d7e c83d
000003b0: 39f1 493e a15a 58be b27c 323e b472 053f
000003c0: 6970 76be 9610 53be fb9d 8b3e 75a8 863e
000003d0: 9cc4 093e 58fe 3abc 03dd debe b6f6 e0ba
000003e0: 76d5 34be 124e a0bd 9e96 343e 790b 843e
000003f0: 8d7c 36be 3104 a63e 0ce0 b7bc 3037 24be
0.2707444 0.07835307 0.15066399 -0.16116898 0.08002965 -0.061027758 -0.042180266 -0.19123256
-0.14992018 0.051282357 0.02144011 -0.3805617 0.15080336 -0.067245215 0.06377962 0.14696194
0.07385827 -0.28254616 0.28641412 0.055827875 0.12751432 -0.10794258 -0.3133592 -0.20874242
-0.010058848 0.32564455 0.014260473 0.5548348 0.035303224 0.13542771 0.53053695 -0.27848202
0.038352042 0.3106462 0.31780717 0.09932816 -0.25593203 -0.01857895 0.032578126 0.21269229
0.21140933 -0.43456706 -0.3556154 -0.18002766 -0.48852012 -0.1614664 0.44193646 -0.22074565
0.08454232 0.36154827 0.13673897 0.12422813 0.26812303 -0.20496877 -0.39175886 0.031379845
-0.07606621 0.12917721 0.046221785 0.05279065 0.120023616 -0.07825753 0.13097212 -0.26129252
0.37511018 -0.15943985 -0.22424664 0.12576544 -0.15593451 -0.2760146 -0.23056312 0.09447728
0.53493553 0.05133919 0.058792014 0.07277864 0.3610852 0.11556168 -0.19590236 -0.0017519294
0.15656975 0.11516116 0.09280381 -0.12716672 -0.49085492 -0.21094291 -0.19362363 -0.24939218
-0.18877743 -0.5173517 -0.30742064 0.28591153 0.13424559 0.26046506 1.0360916 0.08943904
0.39729926 -0.06126027 0.17042315 0.17630282 0.10974796 0.08929391 0.10111783 -0.026618809
-0.17025225 0.08931041 -0.084541515 -0.12012934 0.30671114 -0.29564315 -0.019953554 0.192837
0.39399955 -0.13077961 -0.18939 0.116998084 -0.029269436 -0.00709646 0.1043016 -0.1299107
0.22072111 -0.07728668 -0.16526131 0.080571026 -0.12335545 0.032201245 0.32625479 0.15911554
-0.3523301 0.06772959 -0.22113074 -0.040330447 0.17380679 -0.21401043 0.08307375 0.02426679
0.27160063 0.0040362854 0.20072345 -0.18680686 -0.08501281 0.12676296 -0.07471049 -0.24406205
0.37793234 -0.16779199 -0.21069992 0.011916919 -0.18724367 -0.01976733 0.24324845 0.14550911
-0.19149426 -0.32913038 -0.026702175 -0.0759121 0.46316057 -0.12965396 -0.2766377 0.13232954
-0.002482461 0.17338067 -0.063311815 0.1375766 -0.19111717 -0.32815498 0.32655117 0.06273788
-0.00087322184 0.37406707 0.044518292 0.21326217 -0.39694762 -0.195287 -0.01835066 0.2078664
-0.1294217 0.3855537 -0.008081921 0.24529731 -0.13623212 0.062158756 0.026368285 0.25418657
-0.25222453 -0.355613 -0.4832332 -0.3761525 -0.25109956 -0.1968421 -0.05038488 0.11734787
0.012425089 -0.38315162 0.016089356 0.14724143 -0.10645261 -0.37658185 0.408035 -0.0015910057
0.3845717 0.4276151 -0.44582382 -0.10229501 -0.07128703 0.37939116 0.10409255 0.13468824
0.18482925 0.3032315 0.32508552 -0.21720263 -0.08739244 0.10620644 0.061203368 0.10965875
-0.68812263 -0.47047833 0.12247884 0.15917958 0.047251683 -0.07208206 0.42665678 -0.12920831
0.67750436 0.10274819 0.017552534 -0.30954966 0.37484574 -0.14967044 -0.108271636 -0.04424186
-0.024990764 0.39596313 -0.054434836 0.09789763 0.19720925 -0.21128322 0.1743038 0.5212815
-0.24066319 -0.20611796 0.27268967 0.26300398 0.13453907 -0.011413179 -0.43527994 -0.0017163369
-0.17659554 -0.07827391 0.17635581 0.25790003 -0.1782095 0.32425073 -0.022445701 -0.16036677
